app/src/main/assets/spam_ham_model.tflite (tflite, 36792 bytes, 4 tensors)

sequential/embedding/embedding_lookup f4 [500, 16]
0	0xbe44b74e	-0.1921055
1	0xbe3d8233	-0.18506698
2	0x3cc37168	0.023857787
3	0x3db7bf17	0.08971994
4	0xbe3ad44d	-0.18245049
5	0xbe1a29fd	-0.1505508
6	0x3e0396d3	0.12850504
7	0x3d3be9ca	0.045877255
8	0x3c59125f	0.013249009
9	0xbd342768	-0.043982893
10	0xbe425781	-0.18978693
11	0x3e14bea4	0.14525849
12	0x3cf90ede	0.030402597
13	0xbd53b655	-0.051687557
14	0x3ced6618	0.028979346
15	0x3e1c58d4	0.1526826
16	0xbdb07c5d	-0.086174704
17	0xbd347bca	-0.044063367
18	0xbda7548f	-0.08170425
19	0x3d844b68	0.06459695
20	0xbca355aa	-0.019938309
21	0xbadf6e1c	-0.0017046365
22	0xbd4d3f64	-0.050109282
23	0xbdab12b9	-0.083531804
24	0xbdb611b1	-0.08890093
25	0x3d07a278	0.033113927
26	0xbdb83abe	-0.08995579
27	0x3b8b19d5	0.004245023
28	0xbba37eec	-0.0049894955
29	0xbd7e7b7f	-0.062129494
30	0xbdc4df7c	-0.09612939
31	0xbd61fa22	-0.055170186
32	0xbcbfd65d	-0.023417646
33	0x3db4a23e	0.08820008
34	0xbdf51aac	-0.11967978
35	0x3e4aa010	0.19787621
36	0xbe289803	-0.16464238
37	0x3e197945	0.14987667
38	0xbe435ac5	-0.19077595
39	0xbdecbeff	-0.11559867
40	0xbe3e4458	-0.18580759
41	0x3e1ac324	0.15113503
42	0xbe3d24ac	-0.1847102
43	0xbdf3f2a4	-0.119115144
44	0xbe1814dc	-0.14851707
45	0xbdf0d604	-0.1175957
46	0xbe3957ed	-0.18099947
47	0xbe156a7c	-0.14591402
48	0x3bdf39bc	0.0068123024
49	0x3ce14d00	0.027502537
50	0xbd17c8aa	-0.037056603
51	0x3dab7b42	0.08373119
52	0xbdc21839	-0.09477276
53	0x3d419ef1	0.04727072
54	0xbd85ab7f	-0.06526851
55	0xbd83b850	-0.06431639
56	0xbc85d620	-0.016337454
57	0x3dc22d1d	0.09481261
58	0xbe15a48a	-0.14613548
59	0xba21f920	-0.0006178785
60	0xbd938948	-0.07203919
61	0xbdfcb231	-0.12338675
62	0xbda5c8b1	-0.080949195
63	0xbd47955b	-0.04872642
64	0xbdbe664c	-0.09296855
65	0x3c8633f0	0.016382188
66	0x3bbf497b	0.005837617
67	0x3c8aa09a	0.016922284
68	0xbd71a6ae	-0.05899685
69	0xbd573317	-0.052538957
70	0xbbe6da4d	-0.0070450664
71	0xbda05ccc	-0.078301996
72	0xbd5c864e	-0.05383902
73	0x3d3877b6	0.04503604
74	0xbd4a076e	-0.04932349
75	0xbce8e143	-0.028427726
76	0xbb078f49	-0.002068477
77	0xbd357840	-0.044304132
78	0xbd082d75	-0.033246476
79	0xbd7f9f9f	-0.062408086
80	0xbebcc7f2	-0.36871296
81	0xbeb4e7d8	-0.35333133
82	0x3ec3faea	0.3827737
83	0xbe8dcaa6	-0.2769367
84	0x3e9d05ed	0.30668584
85	0xbe92ee29	-0.28697327
86	0x3ec2f889	0.38080242
87	0x3ea0a0d1	0.31372693
88	0x3e978b79	0.29598597
89	0xbe957729	-0.29192474
90	0x3e9dfc5c	0.30856597
91	0x3ea9da11	0.33174184
92	0x3ea905f5	0.33012357
93	0x3e962d80	0.2933159
94	0x3e8cf166	0.27527922
95	0x3eb547cc	0.3540634
96	0x3ef0189b	0.46893772
97	0x3f06546d	0.52472574
98	0xbf11965d	-0.5687006
99	0x3f14876d	0.58019143
100	0xbf1824cc	-0.5943115
101	0x3f1d6f9f	0.61498445
102	0xbf0d8a5c	-0.55289245
103	0xbf109a6d	-0.56485635
104	0xbf0a8b84	-0.54119134
105	0x3f1855ba	0.5950581
106	0xbf0a0ba2	-0.53924
107	0xbf138ccf	-0.5763673
108	0xbf27ad62	-0.65498936
109	0xbf1d89de	-0.61538494
110	0xbf0a61c9	-0.5405546
111	0xbf08eb3c	-0.5348394
112	0xbe0b751f	-0.13618897
113	0xbe2c52bc	-0.16828436
114	0x3e46e63c	0.19423765
115	0xbe3839c5	-0.17990787
116	0x3e050f0f	0.12994026
117	0xbe3c5d1e	-0.18394896
118	0x3dbe7c05	0.093009986
119	0x3e408cad	0.18803664
120	0x3de22bb3	0.11043491
121	0xbe3dfe8b	-0.18554132
122	0x3e110e64	0.14165646
123	0x3e2cfb5e	0.16892764
124	0x3e2accb7	0.16679655
125	0x3e31694c	0.17325324
126	0x3e12a3f9	0.14320363
127	0x3df25262	0.118321195
128	0x3e13111f	0.14362
129	0x3e98747b	0.29776368
130	0xbea87c68	-0.32907414
131	0x3e905925	0.28193012
132	0xbe96dff5	-0.2946774
133	0x3ea1edf4	0.31626856
134	0xbe90ab9b	-0.28255925
135	0xbe716901	-0.23575212
136	0xbea02cb1	-0.31284097
137	0x3e902892	0.28155953
138	0xbe8e935b	-0.27846798
139	0xbea59f37	-0.32348034
140	0xbeae67d1	-0.3406358
141	0xbe76374f	-0.24044536
142	0xbe797be0	-0.24363661
143	0xbe8d5314	-0.27602446
144	0xbe4b54d0	-0.19856572
145	0xbe10be4a	-0.1413509
146	0x3e1114f7	0.14168154
147	0xbd4daeee	-0.050215654
148	0x3d94f05d	0.07272408
149	0xbe1fc585	-0.15602691
150	0x3da9da6b	0.08293613
151	0x3db13936	0.0865349
152	0x3e13eb8a	0.1444532
153	0xbd472bca	-0.048625745
154	0x3ca6b70b	0.020350954
155	0x3e038270	0.12842727
156	0x3e01584d	0.1263134
157	0x3dff98a2	0.12480284
158	0x3daf8582	0.085703865
159	0x3dd24b28	0.10268241
160	0x3e770bf8	0.2412566
161	0x3eae1d26	0.34006613
162	0xbecef45c	-0.40420806
163	0x3ed332f7	0.4124982
164	0xbed5ac43	-0.41732988
165	0x3ead8aec	0.3389505
166	0xbece873b	-0.40337548
167	0xbed06cb8	-0.40707946
168	0xbeb83df1	-0.35984758
169	0x3eab8bce	0.335051
170	0xbeafe343	-0.34353074
171	0xbeaab6aa	-0.33342487
172	0xbed60d48	-0.41807008
173	0xbebb02e3	-0.3652564
174	0xbea8cc9a	-0.329686
175	0xbeaac4af	-0.33353183
176	0x3d223dac	0.039609596
177	0x3e3cfb7d	0.1845531
178	0xbe5eac8d	-0.2174551
179	0x3e665639	0.22493829
180	0xbe6fd8b3	-0.23422508
181	0x3e0587b5	0.1304005
182	0xbe3b7ab6	-0.1830853
183	0xbe4a556a	-0.19759145
184	0xbe33c141	-0.1755419
185	0x3e1831f3	0.14862804
186	0xbe382df7	-0.17986284
187	0xbe190edb	-0.14947073
188	0xbe3b8a43	-0.18314461
189	0xbe337c85	-0.17527969
190	0xbe3d8d1e	-0.18510863
191	0xbe452e77	-0.19256006
192	0x3cc39965	0.023876855
193	0xbd1ca69d	-0.038244832
194	0x3b5e339b	0.003390527
195	0xbb160de5	-0.0022896465
196	0xbdb74abb	-0.089498006
197	0x3cdc7c65	0.026914785
198	0x3c0e5e60	0.008689493
199	0xbd870a8b	-0.06593808
200	0xbdad6327	-0.084661774
201	0x3cffdf0c	0.031234287
202	0xbd47889f	-0.048714276
203	0xbda6fbc0	-0.08153486
204	0xbc4c3e23	-0.012465986
205	0x3b19fc56	0.0023496351
206	0xbd8f8bc3	-0.07009079
207	0x3c6613cb	0.014042805
208	0xbcec5c5b	-0.028852632
209	0x3d4efb98	0.050532907
210	0xbdb88bdf	-0.09011053
211	0x3dc9d60a	0.09855278
212	0xbc548a14	-0.0129723735
213	0x3c801912	0.015636954
214	0xbc8d0d9b	-0.017218402
215	0xbda81ff8	-0.082092226
216	0xbbdcc2bb	-0.006737081
217	0x3cecca9f	0.028905211
218	0xbdd7c966	-0.105364606
219	0xbd17c6d5	-0.037054855
220	0xbce69e61	-0.028151693
221	0xbba716e8	-0.005099166
222	0xbcb40cf8	-0.02197884
223	0xbd8fd43c	-0.07022902
224	0x3e71f8d3	0.23630075
225	0x3ea98bdf	0.33114526
226	0xbedb2474	-0.4280125
227	0x3eb0c2e4	0.3452369
228	0xbecb2d57	-0.3968303
229	0x3ebd95ed	0.37028447
230	0xbec1e633	-0.3787094
231	0xbec2d8ce	-0.38056034
232	0xbec14363	-0.37746724
233	0x3ec91474	0.39273417
234	0xbed42f85	-0.41442505
235	0xbeb4f023	-0.3533946
236	0xbee3fa56	-0.4452693
237	0xbeb4dbc6	-0.35323924
238	0xbea363a7	-0.31911966
239	0xbea06bb5	-0.31332174
240	0x3e280bff	0.16410826
241	0x3e6f40d4	0.23364574
242	0xbe9fccea	-0.31211025
243	0x3eaf0e92	0.34190804
244	0xbe985683	-0.29753503
245	0x3e6acc5f	0.22929524
246	0xbe9ac6f0	-0.30229902
247	0xbea4d3a5	-0.32192722
248	0xbea1b34d	-0.31582108
249	0x3e9834bd	0.29727736
250	0xbeaf9f94	-0.34301436
251	0xbe8f058a	-0.27933913
252	0xbea55a66	-0.3229553
253	0xbe8321a0	-0.2561159
254	0xbea701ab	-0.3261846
255	0xbe7215c2	-0.23641112

sequential/dense/BiasAdd/ReadVariableOp f4 [32]
0	0x3de34c39	0.11098523
1	0xbc4e72c6	-0.012600606
2	0x3e60922e	0.21930763
3	0x3d5e855d	0.054326404
4	0x3cae531e	0.021279868
5	0xbc4de930	-0.012567803
6	0x3c986b0f	0.018605737
7	0x3e10b3bd	0.14131065
8	0x3debd03d	0.11514328
9	0x3e655bce	0.22398302
10	0x3e221df2	0.15831736
11	0x3e34040a	0.17579666
12	0x3e53bfb2	0.20678595
13	0xbc8119c1	-0.01575935
14	0x3e454ec6	0.19268331
15	0x3df5a8d6	0.119950935
16	0x3dc170a2	0.09445311
17	0xbd200235	-0.039064605
18	0x3e30dbff	0.17271422
19	0x3e0b91e4	0.13629872
20	0x3e0d025e	0.13770434
21	0xbccf13d2	-0.025278006
22	0x3dfd3e81	0.12365437
23	0x3dbdfcdd	0.092767455
24	0x3e088084	0.13330275
25	0x3e270a2a	0.16312471
26	0x3e03efc8	0.12884438
27	0x3de244e3	0.11048295
28	0x3dcc3c95	0.099724926
29	0x3d8a140c	0.06742105
30	0xbbab09c7	-0.0052196714
31	0xbcab381b	-0.020900777

sequential/dense/MatMul f4 [32, 16]
0	0xbeb9dcac	-0.36301172
1	0xbf1608b2	-0.5860702
2	0x3ebdf49e	0.3710069
3	0xbeb468c1	-0.3523617
4	0x3ecb0043	0.39648637
5	0xbf20b5d5	-0.62777454
6	0x3eb9d914	0.3629843
7	0x3f4bd4d9	0.79621655
8	0x3e95eec4	0.29283726
9	0xbf5ca094	-0.8618252
10	0xbe30cdc8	-0.17266
11	0x3f3ea681	0.74472815
12	0x3f00c0fc	0.5029447
13	0x3f405bcd	0.75140077
14	0x3f60196d	0.87538797
15	0x3f1ad310	0.60478306
16	0x3dec720c	0.1154519
17	0xbde9296c	-0.11384854
18	0xbeb728c9	-0.35773304
19	0xbe5a36cf	-0.2130997
20	0x3e914d71	0.28379396
21	0xbe78e276	-0.24305138
22	0xbd925c22	-0.07146479
23	0x3ddb0bae	0.10695587
24	0xbd749e62	-0.059721358
25	0x3e9df218	0.30848765
26	0x3e6af77b	0.22945969
27	0xbea442b6	-0.32082146
28	0x3d844030	0.06457555
29	0xbd609221	-0.05482686
30	0x3e18db27	0.1492735
31	0x3e31d640	0.17366886
32	0xbeb199cd	-0.34687653
33	0xbdc567bc	-0.096389264
34	0x3f83b1be	1.0288618
35	0xbec8914d	-0.39173356
36	0x3daf1bb5	0.085502066
37	0xbe1e2046	-0.15441999
38	0x3d602b84	0.054729
39	0x3f3e0e7c	0.7424085
40	0x3f72d132	0.94850457
41	0xbf4c9395	-0.7991269
42	0x3e9bee51	0.30455258
43	0x3e65206a	0.22375646
44	0x3f7f751e	0.9978808
45	0x3f366060	0.71240807
46	0x3f7e9372	0.99443734
47	0x3e0de4a4	0.1385675
48	0xbefa99ed	-0.4894556
49	0xbe9a6b32	-0.3015991
50	0x3f5cf0bb	0.86304826
51	0xbea5e259	-0.32399252
52	0x3e2a04fb	0.16603462
53	0xbf222a83	-0.6334612
54	0x3f1c628a	0.6108786
55	0x3f1a8937	0.60365623
56	0x3f27fd47	0.65620846
57	0xbf304854	-0.68860364
58	0xbdc3724b	-0.09543284
59	0x3f0fb135	0.5612977
60	0x3ea97020	0.33093357
61	0x3f33f51f	0.702959
62	0x3eb45a47	0.35225126
63	0x3f0c39b7	0.54775566
64	0xbf28a159	-0.65871197
65	0xbf1fa810	-0.6236582
66	0x3f5766ed	0.8414143
67	0xbf1d6d96	-0.6149534
68	0xbdf73712	-0.12071051
69	0xbe9dadfb	-0.307968
70	0x3eb38e37	0.3506944
71	0x3ef7d6d1	0.4840608
72	0x3f3c33c7	0.73516506
73	0xbea94deb	-0.3306726
74	0x3d800cd4	0.06252447
75	0x3f12df21	0.5737172
76	0x3f02d735	0.5110963
77	0x3f0f9544	0.56087136
78	0x3f0fa9c4	0.56118417
79	0x3f33d258	0.70242834
80	0x3e8c1644	0.27360737
81	0x3dce8510	0.100839734
82	0x3e4bf62e	0.19918129
83	0xbe5bbe20	-0.21459246
84	0x3e72720a	0.23676315
85	0x3deb2e74	0.114834696
86	0xbe806155	-0.25074258
87	0xbe2141bf	-0.15747736
88	0x3eae5891	0.34051946
89	0x3e64ca59	0.22342815
90	0x3e86ca64	0.26326287
91	0xbdbf55f1	-0.09342564
92	0x3e0e2970	0.13882995
93	0xbddfa505	-0.10920147
94	0xbe292f38	-0.16521919
95	0xbe3098db	-0.1724581
96	0xbe9b3230	-0.30311728
97	0xbe70c2b6	-0.23511776
98	0x3e95a17b	0.29224762
99	0xbdb1ca75	-0.08681194
100	0xbcad0058	-0.021118328
101	0xbeab3791	-0.3344083
102	0x3f3dc703	0.7413179
103	0x3e3927e6	0.18081626
104	0x3f15bdd8	0.58492804
105	0xbebbfb5b	-0.36715207
106	0x3ea0b816	0.31390446
107	0x3e8ff396	0.2811553
108	0x3f1de066	0.6167053
109	0x3e815b14	0.252648
110	0x3e8df601	0.2772675
111	0x3f3d6754	0.7398579
112	0x3d80ec24	0.0629504
113	0x3e101335	0.14069827
114	0xbf726ae6	-0.94694364
115	0x3eacb00d	0.33728066
116	0xbf23f62c	-0.64047503
117	0x3e2483d6	0.16065916
118	0xbf21fb26	-0.6327385
119	0xbf763f12	-0.9618999
120	0xbef9103c	-0.48645198
121	0x3f32a814	0.69787717
122	0xbe344cf6	-0.17607483
123	0xbe841d6a	-0.2580369
124	0xbf4029a7	-0.75063556
125	0xbf5e5816	-0.8685316
126	0xbeff6b3c	-0.498865
127	0xbd896c5f	-0.06710123
128	0xbe3f6329	-0.1869017
129	0xbdac9d29	-0.084284134
130	0xbf21f1b2	-0.6325942
131	0x3f0a37cb	0.53991383
132	0xbf2dc780	-0.6788254
133	0x3f19c0d0	0.60059834
134	0xbf34af84	-0.70580316
135	0xbf3b1953	-0.73085517
136	0xbf36a630	-0.7134733
137	0x3f3e969a	0.7444855
138	0xbf0abeab	-0.54197186
139	0xbf040978	-0.5157695
140	0xbf0c206f	-0.5473699
141	0xbf168b70	-0.58806515
142	0xbf66b6ad	-0.9012249
143	0xbebd4c60	-0.36972332
144	0xbbf5325f	-0.0074828113
145	0xbe3ba571	-0.1832483
146	0x3f89b4c6	1.0758293
147	0x3c1f6ce2	0.0097305495
148	0x3ec13772	0.37737614
149	0xbed63b55	-0.41842142
150	0x3f326636	0.6968721
151	0x3f5e8fa7	0.86937946
152	0x3fa44874	1.2834611
153	0xbf3178c4	-0.693249
154	0x3e9e0f57	0.30871078
155	0x3ec46891	0.38361028
156	0x3f284df7	0.65743965
157	0x3f1b336a	0.60625327
158	0x3f4160c7	0.75538296
159	0x3ec77f48	0.38964295
160	0xbe8afd8c	-0.27146566
161	0xbe2cfeb1	-0.16894032
162	0x3f7b6a7d	0.98209363
163	0xbe44a760	-0.19204473
164	0x3ea25ef5	0.3171307
165	0x3db8a0a5	0.090150155
166	0x3e043a1a	0.12912789
167	0x3f2cf134	0.67555547
168	0x3f6962d4	0.91166425
169	0xbefd913c	-0.49524868
170	0xbe0ee9aa	-0.13956323
171	0x3e04ead0	0.12980199
172	0x3f9007b7	1.1252354
173	0x3f1f0155	0.6211141
174	0x3e911b4b	0.28341135
175	0x3e317634	0.17330247
176	0x3ea98d68	0.33115697
177	0x3de314d4	0.11087957
178	0xbeda5c76	-0.42648667
179	0x3f33290d	0.69984514
180	0xbeccaf72	-0.39977604
181	0xbd1d6e1f	-0.038435098
182	0xbf1c881c	-0.61145186
183	0xbf2e95e3	-0.6819746
184	0xbf1abf4d	-0.6044815
185	0x3e84d2d9	0.25942114
186	0xbea5385c	-0.3226956
187	0xbea08bd6	-0.31356686
188	0xbeec8f0f	-0.46202895
189	0xbf3f14ef	-0.7464132
190	0xbf57ab80	-0.84246063
191	0xbf02b94a	-0.5106398
192	0x3cba077d	0.022708649
193	0x3daac308	0.083379805
194	0xbefb995e	-0.49140447
195	0x3f03b0da	0.5144173
196	0xbf22c05c	-0.6357477
197	0x3eb515a3	0.3536807
198	0xbf10e880	-0.56604767
199	0xbf6fb1a5	-0.9363044
200	0xbf7cfd21	-0.98823744
201	0x3f395978	0.72402143
202	0xbec8135d	-0.39077273
203	0xbedd33fb	-0.4320372
204	0xbf7d71bd	-0.99001676
205	0xbf60d0c4	-0.8781855
206	0xbf5dd4ec	-0.8665302
207	0xbeb04f62	-0.34435564
208	0xbe9d493f	-0.30719945
209	0x3e867612	0.26261955
210	0xbeb06450	-0.34451532
211	0xbeac79b5	-0.33686605
212	0x3cdd73bd	0.027032727
213	0xbe0cf0d6	-0.13763747
214	0x3e8679ad	0.26264706
215	0xbe792427	-0.24330197
216	0x3dcf4233	0.101200484
217	0x3eb02242	0.34401137
218	0x3cae1a5e	0.021252807
219	0x3e4d2458	0.20033395
220	0xbd63b28e	-0.055590205
221	0x3d690513	0.056889605
222	0x3e88e40c	0.26736486
223	0xbeae4ff4	-0.34045374
224	0x3e8f4bfa	0.27987653
225	0x3f03daa6	0.51505506
226	0xbf6dffea	-0.9296862
227	0x3f43cbed	0.7648304
228	0xbf37e623	-0.71835536
229	0x3f147f6c	0.5800693
230	0xbf2d29a2	-0.6764165
231	0xbea69167	-0.32532808
232	0xbf5db01b	-0.8659684
233	0x3f7482c5	0.9551204
234	0xbef8ca2d	-0.48591748
235	0x3c933096	0.017967504
236	0xbf68b3fa	-0.9089962
237	0xbe91d67b	-0.28483948
238	0xbf28d3a1	-0.6594792
239	0xbd02274c	-0.031775758
240	0xbedb7d9c	-0.4286927
241	0xbeff9566	-0.4991867
242	0x3f64b553	0.8933918
243	0xbe159eb0	-0.14611316
244	0x3b867a77	0.0041039544
245	0xbf55d040	-0.8352089
246	0x3efafd2e	0.49021286
247	0x3f6c3b9f	0.92278475
248	0x3f702eee	0.9382161
249	0xbf5d11e1	-0.86355406
250	0x3e86f5ae	0.26359314
251	0x3ed518ec	0.41620576
252	0x3f200838	0.6251254
253	0x3f02c083	0.51075
254	0x3f091fde	0.5356425
255	0x3f302798	0.68810415

sequential/dense_1/MatMul f4 [1, 32]
0	0xbf490e7f	-0.78537744
1	0x3e2d3c3e	0.16917512
2	0xbf439110	-0.7639322
3	0xbf261119	-0.6486984
4	0xbf596ac2	-0.84928524
5	0x3e521f1f	0.20519684
6	0xbf517da1	-0.8183232
7	0x3f4f416c	0.809592
8	0x3f5ff31f	0.8748035
9	0xbf27995d	-0.6546839
10	0xbf5b8a68	-0.85758066
11	0x3f6c3a9d	0.92276937
12	0x3f26596d	0.649802
13	0x3e3dd466	0.18538055
14	0x3f3c7344	0.7361338
15	0xbf0d9e3c	-0.5531957
16	0x3f778294	0.9668362
17	0xbe6ff235	-0.23432238
18	0x3f482c27	0.7819237
19	0x3f467282	0.77518475
20	0x3f6abdfa	0.9169613
21	0x3d8bc76a	0.068251446
22	0x3f7e81d5	0.9941686
23	0xbf1eb7ac	-0.6199901
24	0x3f4cb00c	0.79956126
25	0xbf3ef9a7	-0.7459969
26	0x3f753b06	0.9579319
27	0x3f84b576	1.0367877
28	0xbf233d9e	-0.63765895
29	0xbf387114	-0.72047544
30	0x3da23d16	0.079218075
31	0x3e4b88bb	0.19876377
